autoencoder.ipynb


input (20631, 25)

Model: "model_4"
_________________________________________________________________
Layer (type)                 Output Shape              Param #   
=================================================================
input_5 (InputLayer)         [(None, 25)]              0         
_________________________________________________________________
dense_24 (Dense)             (None, 32)                832       
_________________________________________________________________
dense_25 (Dense)             (None, 16)                528       
_________________________________________________________________
dense_26 (Dense)             (None, 8)                 136       
_________________________________________________________________
dense_27 (Dense)             (None, 16)                144       
_________________________________________________________________
dense_28 (Dense)             (None, 32)                544       
_________________________________________________________________
dense_29 (Dense)             (None, 25)                825       
=================================================================
Total params: 3,009
Trainable params: 3,009
Non-trainable params: 0
______________________________________________

Dense(32, activation='relu')
Dense(16, activation='relu')
Dense(8, activation='relu')
Dense(16, activation='relu')
Dense(32, activation='relu')
Dense(nb_features, activation='sigmoid')

epochs 200
batch 256
===============================
…
